trained_model.pkl (torch, 8651 bytes, 7 tensors)

0.weight f4 [32, 6]
-0.5081327 -0.13377303 -0.34759912 -0.34602714 0.05962308 0.1309439 -0.23637336 -0.03318648
0.25055832 -0.17408207 -0.22131963 -0.057640288 -0.20428686 0.31647173 -0.6417585 -0.5882079
0.410902 0.13397089 -0.37045208 0.2851107 0.2455561 -0.32309636 -0.32499442 0.34424666
0.8000322 -0.4183772 0.29807967 0.15536864 -0.004251217 -0.7085149 -0.045299333 -0.3835432
0.37785077 0.13339984 -0.34774283 -0.01604138 -0.12386149 -0.35251355 0.22246021 0.15857452
-0.39074454 -0.3066131 0.05509185 0.23746161 -0.63834 0.03558212 0.36932993 0.2471948
0.13536775 0.30512068 -0.0029554337 -0.8372949 -0.071525104 0.26781654 0.24110542 0.4836925
-0.12567037 0.14277335 0.33976278 0.09661292 0.17709225 -0.178145 0.118490934 0.018381536
-0.5583571 -0.097688414 -0.40280843 -0.38988483 0.27485672 0.22777945 0.42009676 0.33542314
-0.016569547 -0.2805921 0.09174886 -0.00019282103 -0.09558846 -0.1439546 -0.15342663 -0.56238216
-0.12615865 -0.051545937 -0.20458037 -0.06581228 -0.23129572 -0.37626168 -0.106809735 0.2634542
0.021340838 0.20327546 -0.55102247 0.37936005 -0.020433761 -0.59660244 0.37678808 0.19356865
-0.12221444 -0.19180585 -0.19021723 0.21230483 -0.25573286 0.08751124 0.0023306157 -0.25560057
-0.15906343 0.062410295 -0.46901962 -0.23947665 -0.121663764 -0.14788711 -0.27486444 -0.63997334
-0.33043602 -0.16353616 -0.09591365 -0.30534926 -0.31260544 -0.38991082 -0.16593054 -0.32633334
0.24535379 0.09102901 0.13557103 -0.06883843 -0.40364513 -0.3828098 -0.47112966 0.34655356
-0.27805588 -0.4592499 0.5621136 -0.139344 -0.043704122 -0.39744142 0.16025698 -0.15275872
-0.20870931 0.3529213 -0.11230473 -0.93999887 0.45207152 -0.07474483 -0.9285206 -0.4605038
-0.08898636 -0.36975136 -0.2805974 -0.02035603 -0.04236948 0.3729747 0.60399336 0.47407672
0.23378114 0.29625106 0.2640203 -0.45674783 -0.16215861 -0.26852822 -0.29051024 0.08019552
-0.000556962 -0.25489533 0.30004182 0.41414535 -0.25634152 0.31116596 0.6230003 0.456743
-0.2635916 -0.1821714 -0.13336053 -0.01467061 -0.50132835 0.2574282 0.020538747 -0.0647212
0.36173487 0.022978961 -0.3979182 -0.07574433 0.103642166 0.12811352 -0.5720609 0.041457478
-0.26189896 0.14320727 0.7626921 0.12182005 -0.26347795 0.022713274 0.2141099 -0.62357485
00000000: fc14 02bf ccfb 08be 83f8 b1be 782a b1be
00000010: 5537 743d 2816 063e dc0b 72be 8cee 07bd
00000020: 2e49 803e 9242 32be 9da1 62be 3918 6cbd
00000030: 9330 51be 9508 a23e 494a 24bf cb94 16bf
00000040: bf61 d23e aa2f 093e e5ab bdbe 08fa 913e
00000050: 0f73 7b3e e36c a5be ab65 a6be 1941 b03e
00000060: e9ce 4c3f 8935 d6be e69d 983e f518 1f3e
00000070: cb4d 8bbb 3c61 35bf cb8b 39bd c65f c4be
00000080: a875 c13e f899 083e 590b b2be 3669 83bc
00000090: 18ab fdbd a87c b4be 9ccc 633e 5c61 223e
000000a0: ab0f c8be 64fc 9cbe fea7 613d 2329 733e
000000b0: 406a 23bf 8fbe 113d d018 bd3e a220 7d3e
000000c0: d89d 0a3e c738 9c3e f3af 41bb f558 56bf
000000d0: c17b 92bd 401f 893e 57e4 763e 8ba6 f73e
000000e0: bcaf 00be 2d33 123e 63f5 ad3e ffdc c53d
000000f0: ac57 353e a56b 36be 60ab f23d e094 963c
00000100: 7ef0 0ebf dd10 c8bd e83c cebe fc9e c7be
00000110: 05ba 8c3e 043f 693e ec16 d73e 95bc ab3e
00000120: dcbc 87bc c5a9 8fbe d4e6 bb3d 0030 4ab9
00000130: e2c3 c3bd d668 13be df1b 1dbe 47f8 0fbf
00000140: bc2f 01be d521 53bd 847d 51be 97c8 86bd
00000150: c9d8 6cbe 5fa5 c0be 10bf dabd 78e3 863e
00000160: fbd2 ae3c 7127 503e cf0f 0dbf 7b3b c23e
00000170: b464 a7bc f0ba 18bf 5eea c03e dc36 463e
00000180: 904b fabd c168 44be 4ec8 42be 7066 593e
00000190: 6bef 82be 1839 b33d 3ebd 183b 14de 82be
000001a0: 86e1 22be f0a1 7f3d 5723 f0be 5e39 75be
000001b0: da2a f9bd b86f 17be 08bb 8cbe 4bd5 23bf
000001c0: e92e a9be 0676 27be 606e c4bd bd56 9cbe
000001d0: d20d a0be 64a2 c7be b2e9 29be 2a15 a7be
000001e0: 063e 7b3e 6b6d ba3d 22d3 0a3e 2afb 8cbd
000001f0: 93aa cebe a5ff c3be e837 f1be 786f b13e
00000200: 575d 8ebe ce22 ebbe ade6 0f3f 32b0 0ebe
00000210: 1803 33bd 717d cbbe 681a 243e c86c 1cbe
00000220: e5b7 55be 1ab2 b43e 0600 e6bd c4a3 70bf
00000230: eb75 e73e d113 99bd 87b3 6dbf 27c7 ebbe
00000240: 7b3e b6bd 0d50 bdbe 76aa 8fbe b0c1 a6bc
00000250: 9f8b 2dbd 8af6 be3e 4f9f 1a3f 2fba f23e
00000260: 5364 6f3e 38ae 973e ab2d 873e dada e9be
00000270: e80c 26be 887c 89be c2bd 94be 8c3d a43d
00000280: 1601 12ba a481 82be 159f 993e dc0a d43e
00000290: 323f 83be 2551 9f3e f37c 1f3f 38da e93e
000002a0: 7af5 86be 248b 3abe aa8f 08be 005d 70bc
000002b0: 0e57 00bf a1cd 833e e040 a83c 8c8c 84bd
000002c0: 5035 b93e 603e bc3c efbb cbbe d81f 9bbd
000002d0: 5842 d43d 3130 033e 9572 12bf 51cf 293d
000002e0: 9f17 86be eda4 123e ca3f 433f ca7c f93d
000002f0: 95e6 86be 3011 ba3c a03f 5b3e 9aa2 1fbf

0.bias f4 [32]
-0.60556066 -0.20149462 0.5526222 0.14785127 0.49629557 -0.29276487 -0.0020756125 0.16464253
0.013879337 0.19086307 -0.36855835 0.17531937 -0.05946636 0.1473854 0.3028071 0.21334347
-0.042678505 -0.7044977 -0.2666227 0.22538364 -0.3098001 0.03505358 0.35644138 -0.6371431
-0.13169779 0.4199545 -0.65745455 0.65040714 0.07807452 0.20102829 0.40585563 0.5290755
00000000: 0606 1bbf 9b54 4ebe a678 0d3f 5366 173e
00000010: 741a fe3e 47e5 95be 0007 08bb 0d98 283e
00000020: 2966 633c 9c71 433e aeb3 bcbe ec86 333e
00000030: ff92 73bd 33ec 163e 8809 9b3e b676 5a3e
00000040: a8cf 2ebd f659 34bf c582 88be f8ca 663e
00000050: 1e9e 9ebe 5894 0f3d 7c7f b63e cf1b 23bf
00000060: c9db 06be 4704 d73e f14e 28bf 1581 263f
00000070: 89e5 9f3d 5cda 4d3e 4fcc cf3e 7e71 073f

2.weight f4 [32, 32]
0.102742895 0.13471915 0.10537703 -0.07769999 0.08846842 0.112556204 -0.17620654 -0.0909455
0.11863862 -1.7926097e-05 0.0015482455 -0.04031633 -0.07458926 -0.004768446 -0.12622456 -0.017864928
0.08393471 0.04314916 0.07948907 -0.14912567 0.15672506 -0.13504209 0.02569729 -0.15984677
-0.14542568 -0.11547602 -0.001173541 -0.17129189 -0.14784247 0.02365911 -0.10607095 -0.14335725
-0.009418845 0.078492 0.592046 -0.062188283 -0.67051315 0.15760683 0.12951691 0.68047065
0.74347717 0.53027344 -0.030035798 0.58038235 0.10105202 0.020834852 -0.0894727 -0.62865996
-0.11167265 0.39550167 0.4876088 0.16557525 -0.093419105 -0.43860835 -0.10617242 -0.006048371
0.083274886 0.1287445 -0.24065259 -0.5325104 0.030158535 0.11260857 0.31240314 -0.17701463
-0.14544772 -0.17230856 0.027397126 -0.020002708 0.026492596 0.17606793 -0.029640585 -0.10244693
-0.119004965 -0.17118505 0.09401472 0.17877084 0.16766877 -0.10500442 -0.09413353 -0.16156313
-0.13480759 -0.2925757 -0.3217282 -0.07505285 -0.036678255 -0.2209975 0.17320181 -0.019158214
-0.13541356 -0.25768074 -0.10495101 0.06360963 0.40198588 -0.05785928 -0.365833 -0.2885608
-0.094764195 0.046852708 0.035588592 -0.039286196 -0.11522162 -0.11768386 -0.0041010976 -0.11852151
0.13036029 -0.07232241 -0.09304678 -0.08473135 0.16131456 0.06529674 -0.07438329 0.027386978
-0.13387829 -0.08928262 0.08862506 0.14444672 -0.16619389 0.14693986 0.15199699 -0.060687438
0.13362242 -0.16340685 -0.13527346 -0.1114059 0.05213122 0.17207031 -0.031466544 0.0014846176
-0.023719758 -0.35136408 0.09617708 -0.12207371 -0.124337204 -0.10653128 -0.09042823 -0.10029825
-0.35439026 -0.18098222 0.13122174 0.10540101 -0.15469363 -0.043322176 -0.045895785 0.14895435
-0.12059916 -0.42757225 -0.16943681 -0.106505424 -0.016494945 -0.32217106 -0.03032799 -0.16433509
-0.2795515 -0.2884828 -0.30136105 -0.09933538 0.1732866 0.16981693 -0.114017725 -0.25103733
-0.033136234 -0.019386709 0.07295267 0.025873914 -0.0069831163 -0.117197126 -0.010591194 -0.05558817
-0.07080013 -0.046902955 -0.16313612 0.01621303 -0.055418953 0.12150301 -0.16190961 -0.12145438
-0.08792471 -0.08222211 0.10230158 -0.09556899 0.047562003 -0.08797638 -0.117704175 -0.023123756
-0.006769493 0.038104966 -0.0024262518 -0.07094372 -0.01646781 0.0019853115 -0.1685127 -0.14556803
-0.06755282 -0.13534202 -0.15986024 0.02851358 0.16364433 -0.17078435 0.17207246 -0.100445695
0.13338836 -0.1552468 0.04498312 0.011654198 -0.12799603 -0.05876223 -0.002078876 0.0010939837
0.06148058 -0.060588494 0.025158763 0.041698053 -0.034797728 -0.09644501 0.06890719 -0.04470676
-0.07490085 -0.13757418 -0.085570745 0.12736695 0.11426072 0.15321101 -0.14003187 -0.121003225
-0.3117356 0.08870396 -0.46050364 -0.0249158 0.06903298 0.06975646 -0.00804016 -0.2699276
-0.067368746 -0.13186964 -0.31882688 -0.33563143 -0.1506486 -0.15836301 -0.17515257 0.08778806
0.11458333 0.40478453 -0.30500498 0.06518212 -0.10890018 0.032048743 0.06833178 -0.09040865
-0.08043807 0.17709477 0.35767862 -0.08858974 0.08228293 0.10465516 -0.11968408 0.048785154
00000000: de6a d23d d1f3 093e eacf d73d 2c21 9fbd
00000010: ee2e b53d de83 e63d 7d6f 34be a241 babd
00000020: cef8 f23d 0060 96b7 80ee ca3a bc22 25bd
00000030: 41c2 98bd a040 9cbb 0341 01be 7859 92bc
00000040: f6e5 ab3d 2cbd 303d 2acb a23d 66b4 18be
00000050: 897c 203e 7948 0abe 2083 d23c dfae 23be
00000060: 78ea 14be b17e ecbd 80d1 99ba 2467 2fbe
00000070: 0464 17be c0d0 c13c ba3b d9bd 3ecc 12be
00000080: 8051 1abc 6ac0 a03d 5490 173f 24b9 7ebd
00000090: c0a6 2bbf af63 213e 15a0 043e 5333 2e3f
000000a0: 8554 3e3f 00c0 073f a20d f6bc f093 143f
000000b0: 5df4 ce3d daad aa3c 773d b7bd dcef 20bf
000000c0: a1b4 e4bd 327f ca3e dca7 f93e 8f8c 293e
000000d0: 8452 bfbd 4691 e0be ed70 d9bd 6a31 c6bb
000000e0: 068c aa3d 99d5 033e a26d 76be 9a52 08bf
000000f0: 080f f73c 529f e63d 4ef3 9f3e 5343 35be
00000100: 3ff0 14be a871 30be f06f e03c b8dc a3bc
00000110: 0007 d93c 274b 343e d0d0 f2bc b2cf d1bd
00000120: e0b8 f3bd 224b 2fbe ca8a c03d b40f 373e
00000130: 5db1 2b3e 8f0c d7bd 15c9 c0bd ce70 25be
00000140: 000b 0abe 7bcc 95be 8fb9 a4be 4fb5 99bd
00000150: f03b 16bd 2b4d 62be d15b 313e b0f1 9cbc
00000160: daa9 0abe bbee 83be 8ef0 d6bd c445 823d
00000170: 18d1 cd3e dafd 6cbd 774e bbbe 3ebe 93be
00000180: bb13 c2bd a0e8 3f3d 58c5 113d 90ea 20bd
00000190: 50f9 ebbd 3c04 f1bd 8062 86bb 68bb f2bd
000001a0: 2b7d 053e c61d 94bd 4f8f bebd a187 adbd
000001b0: a52f 253e 4cba 853d 4456 98bd a85a e03c
000001c0: 6417 09be ced9 b6bd 0e81 b53d d7e9 133e
000001d0: bb2e 2abe 6777 163e 19a5 1b3e 6493 78bd
000001e0: 51d4 083e 2054 27be 2085 0abe c728 e4bd
000001f0: 8c87 553d 3333 303e 10e3 00bd 8097 c23a
00000200: f04f c2bc fee5 b3be 7df8 c43d c801 fabd
00000210: 81a4 febd 122d dabd 7032 b9bd 2b69 cdbd
00000220: a472 b5be 6753 39be fe5e 063e 7cdc d73d
00000230: 0268 1ebe 9872 31bd 38fd 3bbd 7d87 183e
00000240: b1fc f6bd c0ea dabe d880 2dbe 841f dabd
00000250: 6820 87bc 9bf3 a4be 6872 f8bc 7547 28be
00000260: 6021 8fbe 04b4 93be ff4b 9abe 5970 cbbd
00000270: 0b72 313e 7de4 2d3e 2082 e9bd f787 80be
00000280: dcb9 07bd e0d0 9ebc 3668 953d 88f5 d33c
00000290: a0d2 e4bb 0c05 f0bd b086 2dbc 6cb0 63bd
000002a0: a9ff 90bd 501d 40bd 280d 27be 30d1 843c
000002b0: fcfe 62bd 92d6 f83d a2cb 25be 13bd f8bd
000002c0: df11 b4bd 1164 a8bd 7e83 d13d adb9 c3bd
000002d0: 60d0 423d f62c b4bd e30e f1bd 086e bdbc
000002e0: a0d2 ddbb f413 1c3d c001 1fbb f14a 91bd
000002f0: 80e7 86bc 001c 023b 988e 2cbe c90f 15be
00000300: 2259 8abd 1997 0abe 67b2 23be 5095 e93c
00000310: 6192 273e 18e2 2ebe c333 303e 79b6 cdbd
00000320: f596 083e 04f9 1ebe 3840 383d 40f1 3e3c
00000330: 6411 03be aab0 70bd c03d 08bb 0064 8f3a
00000340: 10d3 7b3d a42b 78bd c019 ce3c 94cb 2a3d
00000350: 1088 0ebd f684 c5bd 361f 8d3d 701e 37bd
00000360: 9e65 99bd 3fe0 0cbe b73f afbd 7b6c 023e
00000370: 8601 ea3d 59e3 1c3e 8464 0fbe 8ad0 f7bd
00000380: cf9b 9fbe 6caa b53d 22c7 ebbe 381c ccbc
00000390: 2a61 8d3d 7adc 8e3d e0ba 03bc f333 8abe
000003a0: a0f8 89bd d608 07be 473d a3be e2d7 abbe
000003b0: a043 1abe ea29 22be 325b 33be 3aca b33d
000003c0: aaaa ea3d eb3f cf3e 9d29 9cbe 347e 853d
000003d0: 0f07 dfbd 8b45 033d 88f1 8b3d 2c28 b9bd
000003e0: b7bc a4bd 5558 353e a721 b73e 8a6e b5bd
000003f0: f483 a83d 7255 d63d ed1c f5bd f1d2 473d

2.bias f4 [32]
-0.1371315 0.47539556 -0.1429124 0.16965427 0.07552048 0.022368118 0.088233784 -0.25821525
0.102475144 -0.049148515 -0.1764279 -0.487652 -0.19659981 -0.09335262 -0.1130468 0.018319473
-0.09989372 0.33114624 -0.03728257 -0.06591788 -0.13241959 0.17426501 0.36905652 -0.14533629
-0.116177045 -0.077289924 -0.34781492 0.30187315 0.08882208 0.07545875 0.034451254 -0.08727666
00000000: 336c 0cbe 0c67 f33e a157 12be d9b9 2d3e
00000010: 7baa 9a3d 583d b73c eab3 b43d ca34 84be
00000020: 7dde d13d f44f 49bd 84a9 34be 86ad f9be
00000030: 7651 49be a92f bfbd 1585 e7bd b812 963c
00000040: 1495 ccbd 008c a93e 9cb5 18bd f4ff 86bd
00000050: 0099 07be 8772 323e faf4 bc3e 09d3 14be
00000060: 3bee edbd 2e4a 9ebd cc14 b2be 1e8f 9a3e
00000070: 5ae8 b53d 1e8a 9a3d c21c 0d3d 1bbe b2bd

4.weight f4 [6, 32]
-0.052846417 -0.1498742 -0.17074792 0.043713763 0.41950873 0.019351244 -0.1489207 -0.3216148
0.015171438 -0.06609597 -0.13471778 -0.28584364 -0.26583612 0.033653766 0.08409281 -0.18112482
0.14514624 -0.34307945 -0.08518577 0.0963171 -0.13012524 0.046963245 -0.25645626 0.12387918
0.06641629 -0.13284318 -0.0044460744 -0.1579365 0.12424059 -0.10097045 -0.3335009 -0.1541656
0.015857518 -0.33073553 0.22192852 -0.11586929 -0.29575172 -0.11028549 0.110173 -0.4000094
0.07459227 0.056413993 0.17613743 -0.14275141 -0.1117778 -0.27114743 -0.0598932 0.2207712
-0.09840705 -0.37602466 -0.097843 -0.122666985 0.24955128 0.02175957 -0.3140326 0.049958095
0.12395452 -0.15706453 0.11513825 0.041042432 -0.008827865 -0.014516403 -0.32320666 -0.15158516
-0.061345793 -0.5198384 -0.17196047 0.13080542 0.11804213 -0.10710595 0.024243683 -0.37205696
0.12367259 -0.01606184 0.11040746 -0.3477787 -0.15358607 -0.07474886 0.018790126 0.17201082
-0.122118846 -0.19750993 -0.13160901 -0.08613532 -0.14676628 -0.07876738 -0.21898317 -0.2320601
-0.089641705 -0.06289148 -0.027447633 -0.4153179 0.057585895 0.051130235 -0.46843132 0.13328601
-0.14163691 -0.33253634 -0.16601476 -0.09604337 -0.117023356 -0.11195834 -0.08556135 -0.11923109
0.049467668 0.1647663 0.09159307 -0.14615722 0.015630394 -0.06918498 0.10646714 0.01627323
-0.10144186 -0.41888785 -0.12988058 -0.17641506 -0.0060503483 -0.11986665 -0.45484504 -0.10980032
-0.14421895 -0.13281451 -0.110586755 -0.13041158 0.06360607 -0.20276532 -0.32412112 -0.111802585
0.15158994 -0.15187714 -0.10425672 0.1516952 0.14051501 -0.14537382 -0.038842455 0.0699043
0.17078884 -0.15657666 0.08783175 -0.05848465 -0.11616434 -0.08403934 0.06930034 -0.08383149
0.14380352 0.10748093 -0.09490054 -0.04715556 -0.1479509 -0.14678906 -0.13437709 -0.13712496
-0.06302149 0.12156023 -0.1265262 -0.14276299 -0.08920273 -0.089763306 0.015434012 0.07409932
0.027588561 -0.1131905 -0.109840125 0.10478677 -0.10809311 -0.13506503 0.080504164 -0.2657023
-0.15198809 0.17524211 -0.04832552 -0.22638233 -0.21887855 -0.14906524 -0.004842624 -0.29195324
0.08782624 -0.33254027 -0.031534508 -0.0076651573 0.0001718998 0.081288084 -0.16357812 -0.015274823
-0.04505922 0.0369426 -0.069326214 -0.07759277 -0.121411204 -0.13914971 -0.2161426 -0.13399309
00000000: 7c75 58bd 9f78 19be 8bd8 2ebe 340d 333d
00000010: d9c9 d63e 8086 9e3c ab7e 18be b2aa a4be
00000020: a091 783c 535d 87bd 75f3 09be 195a 92be
00000030: ac1b 88be 88d8 093d da38 ac3d c978 39be
00000040: 37a1 143e 1ca8 afbe e175 aebd e641 c53d
00000050: 8d3f 05be 885c 403d 3c4e 83be 5eb4 fd3d
00000060: 4405 883d 0b08 08be 60b0 91bb 1bba 21be
00000070: da71 fe3d 98c9 cebd a1c0 aabe 96dd 1dbe
00000080: a0e7 813c 2b56 a9be 3b41 633e e14c edbd
00000090: c56c 97be 5cdd e1bd 62a2 e13d 08ce ccbe
000000a0: d5c3 983d 5c12 673d 5f5d 343e 6d2d 12be
000000b0: c2eb e4bd d6d3 8abe 9252 75bd d811 623e
000000c0: a389 c9bd 4e86 c0be e961 c8bd d438 fbbd
000000d0: 5f8a 7f3e 2041 b23c e2c8 a0be dca0 4c3d
000000e0: dedb fd3d 86d5 20be 9acd eb3d 1c1c 283d
000000f0: c0a2 10bc 35d6 6dbc 587b a5be 2439 1bbe
00000100: ba45 7bbd 2114 05bf 6816 30be dbf1 053e
00000110: 12c0 f13d 5d5a dbbd b09a c63c 407e bebe
00000120: 0e48 fd3d 1f94 83bc 4e1d e23d 0d10 b2be
00000130: ab45 1dbe ee15 99bd c0ed 993c 9b23 303e
00000140: 7219 fabd 0b40 4abe 83c4 06be b767 b0bd
00000150: e649 16be cb50 a1bd 203d 60be 2aa1 6dbe
00000160: 1296 b7bd 40cd 80bd dcd9 e0bc 8ca4 d4be
00000170: 30df 6b3d f06d 513d 3bd6 efbe 217c 083e
00000180: 4409 11be 3442 aabe c6ff 29be 63b2 c4bd
00000190: f1a9 efbd 6a4a e5bd ca3a afbd 6e2f f4bd
000001a0: 9c9e 4a3d 7fb8 283e 2695 bb3d 3daa 15be
000001b0: 500b 803c dbb0 8dbd 720b da3d 704f 853c
000001c0: c0c0 cfbd 7878 d6be 6aff 04be 26a6 34be
000001d0: 0042 c6bb a57c f5bd 73e1 e8be fdde e0bd
000001e0: 22ae 13be 8700 08be 4f7b e2bd 9d8a 05be
000001f0: e643 823d b6a1 4fbe 34f3 a5be c1f8 e4bd
00000200: 653a 1b3e ae85 1bbe 8c84 d5bd fd55 1b3e
00000210: 2be3 0f3e e0dc 14be 4419 1fbd fc29 8f3d
00000220: 45e3 2e3e a255 20be 22e1 b33d 9a8d 6fbd
00000230: 92e7 edbd d11c acbd 56ed 8d3d d8af abbd
00000240: 3b41 133e f61e dc3d 375b c2bd 3026 41bd
00000250: 7180 17be df4f 16be 269a 09be 7c6a 0cbe
00000260: 6911 81bd 92f4 f83d 1690 01be 7630 12be
00000270: ecaf b6bd d3d5 b7bd f0de 7c3c 62c1 973d
00000280: 6801 e23c 6cd0 e7bd dcf3 e0bd 729a d63d
00000290: ec5f ddbd 7d4e 0abe 5edf a43d 220a 88be
000002a0: c4a2 1bbe ab72 333e fbf0 45bd c5d0 67be
000002b0: b321 60be 8fa4 18be e0ae 9ebb e57a 95be
000002c0: 3ede b33d b842 aabe 542a 01bd 002c fbbb
000002d0: 0040 3439 5e7a a63d 0681 27be 4043 7abc
000002e0: 0490 38bd 2051 173d e7fa 8dbd f5e8 9ebd
000002f0: 70a6 f8bd 437d 0ebe 7c54 5dbe 7c35 09be

4.bias f4 [6]
-0.032164723 -0.30616194 -0.039623763 -0.24295402 -0.08086265 -0.12294185
00000000: 28bf 03bd 42c1 9cbe 874c 22bd f0c8 78be
00000010: 519b a5bd f0c8 fbbd

6.weight f4 [1, 6]
-0.10264122 -0.2723636 -0.7027166 -0.06261884 0.21711844 -0.097255655
00000000: 8f35 d2bd 3e73 8bbe 3ce5 33bf 4e3e 80bd
00000010: 4c54 5e3e f92d c7bd
